bias_layer2.npy (npy, 564 bytes, 1 tensors)

array f4 [109]
00000000: 9a9e 273e 462f 7f3e 4669 e33d bde6 883e
00000010: e87b 563e ab99 4f3e 1232 edbd fcd7 303e
00000020: 1d0d fb3d b861 24bc 80bc 363e a809 293e
00000030: 37e1 533e 5924 6f3e 213e 193e 7e8b 0abc
00000040: 0689 163e 499f 42bd 66aa 3bbc 6e06 163e
00000050: f45b a73c 5d77 1e3e c3c3 3e3e 4d37 dfbb
00000060: af63 663e e3c1 8c3e 84b1 3b3e 9ea6 dd3d
00000070: a04d 373e 1f52 2dbc 8df2 3b3e bb89 ef3d
00000080: f2e0 d6bc 5b0a 653e 09bf c1bc a15a 9f3c
00000090: e8ec bd3d c9c0 5dbd 0f92 4e3e eebf 923e
000000a0: 054c 483e c916 2cbc 08e4 d83d da11 2b3e
000000b0: 69a2 303e 29b1 253e 5277 f03d bba9 443e
000000c0: 3667 783d 37e7 d13d cb96 50bd 5f3d 343e
000000d0: 5454 f3bb f5a9 ceba bd18 3e3e 00df aebc
000000e0: c1fa 613e e581 083e 66c2 613d a464 693e
000000f0: b6e5 943e c767 3f3e 3795 003e cb4f 56bd
00000100: c41d 1b3e 5065 bb3d 6e47 873e 9ee3 32bd
00000110: 8af6 a5bc 1876 48bc 2b5b 053e bd5c 5e3e
00000120: 5148 48bc fb4a 643e 8467 103c 9ed4 723e
00000130: 48f4 4d3e 153c 1dbc 6ba0 803e c0a7 9a3e
00000140: 17bb 513e dcc3 443e c1bd 97bd c86a 603d
00000150: 2477 743e 81f3 cabc 2832 233e 34e1 e93d
00000160: 7325 9f3e 8d21 0e3e 3e6a 2ebc cf35 00bc
00000170: 83af d73d 0c14 08bc 7df0 b73d 225c f03d
00000180: 27b8 923e f637 013e 0b57 5a3e 9156 533e
00000190: a642 473e 2ca5 39bc 1fdf 2b3e 3aa9 1a3e
000001a0: ae8e 303e da91 893e 1fdf 21bc 89e5 773c
000001b0: 7ebd 8bbc
0.16369095 0.24920377 0.11104064 0.2673854 0.20945704 0.20273463 -0.11581816 0.17269892
0.122583605 -0.010033064 0.17845345 0.1650759 0.20691381 0.2335371 0.14965107 -0.008456109
0.14700708 -0.047515187 -0.0114542 0.1465089 0.020429589 0.15475221 0.18629365 -0.0068120123
0.22498964 0.27491674 0.18329436 0.10822795 0.17900705 -0.010578661 0.18354245 0.11696192
-0.02623031 0.22367232 -0.023650663 0.019452395 0.09273702 -0.054138932 0.20172904 0.28662056
0.19560249 -0.010503479 0.105903685 0.16706029 0.17249455 0.16180862 0.117415085 0.19205372
0.060645305 0.10249179 -0.050925057 0.17601536 -0.007425824 -0.0015767204 0.18564124 -0.021346569
0.22068311 0.13330801 0.055117033 0.22792298 0.29081506 0.18691932 0.12556921 -0.05232219
0.15148073 0.09150183 0.26421684 -0.043674104 -0.02025916 -0.012235187 0.13023059 0.21715064
-0.012224273 0.22294228 0.008813743 0.2371392 0.20112717 -0.009596844 0.2512239 0.30206108
0.20481525 0.1921534 -0.074092396 0.054789335 0.23873574 -0.024774315 0.15937102 0.11419907
0.3108326 0.13879986 -0.010645447 -0.007825329 0.10531523 -0.008305561 0.089814164 0.11736323
0.28656122 0.12619004 0.21322267 0.20638491 0.19459018 -0.011330884 0.16784333 0.15103617
0.17241928 0.26869088 -0.009879856 0.015130409 -0.01705813
