weights_layer2.npy (npy, 47652 bytes, 1 tensors)

array f4 [109, 109]
000000 f1 db 92 3e fb 9a c3 3c 78 63 2b 3e 69 b1 83 be
       0.28683427 0.023877611 0.16737163 -0.2572129
000010 e8 8f c6 3e 91 0d eb 3c a5 aa ed bd 19 62 7d be
       0.38781667 0.028692992 -0.116048135 -0.24744453
000020 23 6a bf 3e 9d 43 c6 ba d7 00 99 3d 1d 63 dd 3e
       0.37385663 -0.0015126351 0.07470863 0.4323968
000030 fa a4 8a 3d 61 64 1a 3a 78 cc c0 bc b5 e1 1c 3d
       0.06769748 0.00058895914 -0.023534998 0.03830119
000040 34 3c 31 3e 05 67 2a bd 32 8b b0 bc c5 34 c7 3e
       0.17308122 -0.041602153 -0.021550748 0.38907447
000050 71 9d c6 3e c8 ce a9 3b 70 a9 ec 3e a5 eb fe 3c
       0.38791993 0.005182121 0.4622302 0.031118223
000060 0d fb e8 3e 59 60 e9 3d ff 65 90 bc 12 06 97 3c
       0.45504037 0.1139533 -0.01762676 0.018435512
000070 91 bb df bd ed 7b 80 bb cd 8d f6 3e 5e e8 c0 3d
       -0.10924447 -0.003921023 0.4815506 0.094193205
000080 5a 60 9b bd d6 57 87 bd 0e 9e 80 bd 77 3d 0d be
       -0.07586737 -0.0660855 -0.062801465 -0.13792978
000090 85 05 d9 3d bc 99 59 be 34 1c 15 3e d5 d4 a1 3c
       0.10596756 -0.21250051 0.1456154 0.019754807
0000a0 69 7a 7d 3e dd dc a1 bc 3b d1 da 3e 7e b2 20 bd
       0.24753727 -0.019758636 0.42737755 -0.039232723
0000b0 b5 88 39 be 20 58 92 be d6 e8 10 3f ce b8 46 3d
       -0.18118556 -0.2858286 0.5660528 0.048516087
0000c0 57 22 eb 3e 3f 0f d0 bd 34 39 f1 3d 52 30 d2 3d
       0.45924637 -0.10159158 0.11778489 0.102631226
0000d0 6d f8 0a 3d 34 6d e9 bc 47 97 4b be 21 00 3a 3e
       0.033928324 -0.028494455 -0.19881926 0.18164112
0000e0 35 2d 90 3d 25 18 97 be 6d e8 f7 bd 77 ac 14 3d
       0.070398726 -0.29510608 -0.121048786 0.036297288
0000f0 05 12 4a 3e f1 ea 48 bc e9 8f b4 bd b8 13 56 be
       0.19733436 -0.012263046 -0.08816511 -0.2090596
000100 8b c9 3f be d0 ec 33 3f 5a ac 2f be cd 40 d2 3e
       -0.18729226 0.7028322 -0.1715559 0.41065064
000110 43 65 74 bd c6 47 98 3e b3 be db bd ff 25 4a 3e
       -0.059666883 0.2974226 -0.10729732 0.19741057
000120 78 db ef 3c 7f f2 f3 3e 68 0f 11 bf 5a d4 33 bd
       0.029279456 0.47645947 -0.56664133 -0.043903686
000130 64 15 05 3d 66 68 13 3d 66 5d cf 3d d1 10 86 3d
       0.032491103 0.035988234 0.10125236 0.06546176
000140 8c f0 31 3c 97 07 e4 be 1f 0e f5 bc 1d d4 86 be
       0.0108605735 -0.4453704 -0.02991396 -0.26333705
000150 30 ba 8a 3d f5 cf d9 bb 9b d3 38 3e 41 e5 86 3e
       0.06773794 -0.006647105 0.18049471 0.26346782
000160 25 0b f7 3d 97 94 92 3e 24 c9 2b bd 54 09 ed bc
       0.120626725 0.2862899 -0.04193987 -0.028935112
000170 cd ff 8f 3e 00 32 33 bc 87 fe 7c 3e db 7a a2 bc
       0.28124848 -0.010937214 0.2470647 -0.019833973
000180 c4 49 22 3e fb 89 29 3e 94 21 37 3e a7 f7 30 3e
       0.15848452 0.16556542 0.17883903 0.17281972
000190 94 76 a2 bc c7 cc 38 bd 03 f0 cc 3e 8e f3 74 3c
       -0.019831933 -0.045117166 0.40026864 0.014950646
0001a0 51 4e 19 3f d1 67 5a 3e a1 eb e8 be 7c bb f5 bd
       0.59885126 0.21328665 -0.4549227 -0.119986504
0001b0 d9 93 92 3c a3 2c 8b be 51 3d 7b bd ee 21 a0 3d
       0.017892765 -0.27182493 -0.061337773 0.078189716
0001c0 d9 b3 ff 3e 10 f0 78 be 2c bd 86 bd d4 45 cc 3d
       0.499419 -0.24310327 -0.065790504 0.09974256
0001d0 f7 fd cf 3e 03 54 8c be f6 31 f9 bb 53 01 8a bd
       0.40623447 -0.27407846 -0.0076048328 -0.06738534
0001e0 9d 89 46 3d 8b bd 71 bc 2a d7 fc 3d fa 8d 88 3e
       0.048471082 -0.014754663 0.12345727 0.2667082
0001f0 d0 c6 e9 bc 6d c2 d8 bd 20 60 40 bd 67 ad 3b bd
       -0.028537184 -0.10583959 -0.046966672 -0.045819666
000200 3b d5 f3 3d e4 1e 0f 3e 26 24 c4 bd c2 90 c6 be
       0.11905905 0.13976628 -0.09577207 -0.38782316
000210 1f 9d 86 bc 6f 0c 81 be 12 b5 a4 3d 25 24 e6 3d
       -0.016432343 -0.252048 0.08042349 0.11237363
000220 80 3f 9a 3d 42 b5 4a 3e 78 85 35 bc aa c4 fb bd
       0.07531643 0.19795707 -0.011079185 -0.1229337
000230 81 b7 1a 3e e4 f3 91 be 68 95 8d 39 15 d4 75 bc
       0.15109064 -0.28506386 0.00027004932 -0.015004178
000240 14 76 6e 3e a3 62 a3 3d ea 4e 6e be 3e a1 9b 3a
       0.2328723 0.07977798 -0.23272291 0.0011873615
000250 72 ef 52 3d da 42 e7 bb 58 81 31 bd 13 9f 79 3d
       0.051497884 -0.00705753 -0.043336242 0.06094272
000260 71 51 4b bd 47 f4 08 3e 62 b6 6d 3e b4 28 19 bf
       -0.049638215 0.13374434 0.23214105 -0.59827733
000270 92 ad aa 3c 86 1b e9 be cd 55 9f 3e 4b 67 0f 3f
       0.020834718 -0.4552881 0.31120148 0.5601699
000280 31 e6 01 be 48 ae 0e 3d 7f dc 87 3c 13 ca 19 3f
       -0.12685467 0.034834176 0.016584633 0.60073966
000290 53 37 f0 be 0f 57 7a bc 24 0d 1c 3c 18 9e d0 bb
       -0.4691721 -0.015279545 0.009524617 -0.0063665025
0002a0 1e dd 26 be b7 58 18 be 0e 97 02 3e 9f 6e 2c be
       -0.16295287 -0.14877592 0.12752935 -0.16839074
0002b0 1c 76 6d 3e 79 e4 47 be 38 9f 5c be ee 74 21 bd
       0.23189586 -0.19520749 -0.21545112 -0.039418153
0002c0 b1 62 2e be 41 1c 3b bd f8 d1 ca bd a5 fe 69 3e
       -0.17029835 -0.045681242 -0.099033296 0.22851045
0002d0 ef 3c db bd 90 e7 a4 3c f7 7c 74 be 8d 6d 8e be
       -0.107049815 0.020129949 -0.23875795 -0.27817956
0002e0 3d 8a c8 3d d9 15 93 3c 58 10 34 bc c5 e6 b1 be
       0.09791992 0.017954754 -0.010990225 -0.34746376
0002f0 9f 21 27 3e ba f3 d2 3c bb 91 07 3f a4 c5 09 bf
       0.16321419 0.025750984 0.5295674 -0.538172
000300 0b bc fe be c7 c0 96 be 84 7e 82 bc b4 d7 60 3e
       -0.4975284 -0.29443952 -0.015929468 0.21957284
000310 80 6e a3 3d 17 d8 a5 be 63 1d 23 bc 4e 0d 95 39
       0.079800606 -0.32391426 -0.009955737 0.00028429407
000320 f7 99 51 bc 9a cb 1f bf 1e ca 63 3c dc df b4 be
       -0.012793056 -0.62420046 0.013903169 -0.3532704
000330 9a 97 74 be 32 ad 9e bc 8d 2d 94 3a 1d ba 31 be
       -0.23885956 -0.019369695 0.0011305079 -0.17356153
000340 a2 87 9f 3e a6 e2 b7 3d d8 1b 10 bd 02 ee 8b 3d
       0.31158167 0.08978777 -0.035182804 0.06832506
000350 26 5a 78 be 7f 88 0d be 28 f1 16 3d 92 c6 b0 be
       -0.24253139 -0.138216 0.03685108 -0.34526497
000360 8b 38 ae 3e bd ba e5 bc f3 89 8f 3e ec 53 97 3c
       0.34027514 -0.028043145 0.28034934 0.018472634
000370 c4 de 1f 3e 41 f8 b6 bd 85 c1 5c 3e 3e 90 77 3d
       0.15612322 -0.089340694 0.21558197 0.060440294
000380 be 4b db be 1d f0 24 be 5f 10 d2 3e 43 30 ca bc
       -0.42831224 -0.16107221 0.41028115 -0.024681216
000390 65 87 1a 3e ca 2d 6a 3e 75 1a 27 3c 8d e4 1c 3e
       0.15090711 0.2286903 0.010199179 0.1532156
0003a0 32 1e 86 3e 26 c2 9d 3c ff 70 f1 3d e8 38 81 bc
       0.26194912 0.019257616 0.117891304 -0.015774205
0003b0 82 f6 76 bc 80 8a 1b 3f 3f b6 69 3e c4 5e 71 3d
       -0.0150734205 0.6075821 0.22823428 0.058928266
0003c0 ee 4d 98 3e 19 21 a7 bb 01 50 d2 3e 92 09 41 3e
       0.29746956 -0.005100381 0.41076663 0.18851307
0003d0 bd 47 13 3d b4 6e 95 3d 8a b3 37 be 30 1e 35 bd
       0.035957087 0.072965056 -0.17939582 -0.044218242
0003e0 b8 36 d7 3e 7f cd ea 3d 5f 3d ce bd cf df a1 3c
       0.42033935 0.114649765 -0.10070299 0.01976004
0003f0 37 f5 2c bd 01 5a a8 bd 97 a7 47 3c 55 88 97 be
       -0.042226043 -0.08220292 0.012185953 -0.295962
