weights_layer1.npy (npy, 1872 bytes, 1 tensors)

array f4 [4, 109]
00000000: e4df 563c 747e 0abf e552 c23d d9a1 56be
00000010: c693 c53d 4232 253f 3772 22bc b5ad 6cbf
00000020: 5434 923e 492e 7cbf 0077 10be 1fd4 7e3c
00000030: fdf3 063f 91ed 403f 7956 9bbe 8ede d2bd
00000040: c4ee 4dbf e600 923d c1bd a7bd baa9 63bd
00000050: 7705 103e a293 ab3e 9bc9 763e cbda 1e3f
00000060: 8abc c0bd 175e a0bd 5f1e 9ebd 8ad6 753e
00000070: 121a cdbe 0863 f2bd f285 9fbe 9306 b53e
00000080: 0238 593f ba27 e0bd e0a9 a13e 3cb4 b0be
00000090: fc56 b8be ad9d 8b3e fefc 863f 3bfa 35be
000000a0: 2fca 88be 5a91 86be c2ba 11be 8b9c 923f
000000b0: 5b11 f83d 73b2 b93e d12c 023f 3eb0 b83e
000000c0: 3ecf 923f c4b0 1ebd cc52 2e3f ebe6 8e3f
000000d0: 9058 c63e ea38 9c3e 82b3 6b3f 12fc 153f
000000e0: dd81 09bf 79cc 833f b358 2a3f f6b5 ca3e
000000f0: 1357 433f 647a 82be f61c 08bf 9dc1 83be
00000100: 8443 fdbe 5292 6abe 3c20 2d3e a6c3 d23e
00000110: 7f18 663e be92 87be a991 d6bd 94e3 72be
00000120: a272 d73e b2d3 5bbc 93c8 eabe 1f16 633f
00000130: f88d 8fbe 8748 6f3e 9140 b9bd 2e9b 4dbe
00000140: b6c4 653d 303c 46bf aa00 c5bd 70cd a23d
00000150: b51a 85be 8d90 f6bd e481 5abf 8659 8cbe
00000160: dc07 83bc e7d6 38bf 934d 623d b685 083f
00000170: 51bb 11bd 635e 303f cd0b 793f 2bbe 8f3e
00000180: 4183 8c3f d635 2fbe 734c 9d3e ac95 74be
00000190: 79ad 413f 153a 01be c6cf 98bd 0895 7e3f
000001a0: c1a9 843e 3144 d93e 9787 6fbe 0884 b7bd
000001b0: 6e3e 92bd f2c7 033f 2778 0fbf 7034 c63e
000001c0: 1785 683e 596e b0be 7277 3a3d ae58 7c3d
000001d0: 5ff5 31bf 7e51 b13e c728 5e3f b1cc 8dbe
000001e0: 670d 803e 6e0d aabf d8b8 36bb 294e b43e
000001f0: 4648 f93e 57df 3cbf 94b7 52bf f505 993e
00000200: e272 183f bdc9 0fbe 84cb 91be 3e06 883c
00000210: fed4 4c3d 88c8 30bf b41a 933e 7721 033f
00000220: 888e 18bf 184d 9f3e 7b8b c73e ee48 80bd
00000230: dd85 0bbe 994b a8bf bf46 713e 7a21 953e
00000240: 33be f9be 0b84 0a3f 0c33 303d a9c6 343f
00000250: 502e 403e 85f4 f4bd 4ceb e9be 2c25 e6be
00000260: df37 433e 84e0 263f 9350 8a3e ea1f 853c
00000270: e2d4 80be 6b7b dc3d a524 b73e 3a28 423d
00000280: 99bf 1fbe ce47 043e baa6 7abe 1496 76bf
00000290: 2ef5 a53d b818 7b3e 2b99 82be b10b f03e
000002a0: 3c75 aabd 953f 60bf 75a2 0c3e ef6f 9a3e
000002b0: fefc 2abd b9f4 b73f 6417 3939 e14a 983e
000002c0: c3e5 31bd f31e 063f 0a39 05bf 0cc0 24bf
000002d0: 96fd 04bf 8fb7 a3bf 1713 fd3e 6155 8f3f
000002e0: adc8 5ebe cbc0 e2bc 55c3 4ebe e74f 513e
000002f0: 8923 c2be 4813 843e 4742 8dbf 1e69 6fbf
00000300: 1bcd 883e 4dcc 153e 04ad 07bf de65 77bf
00000310: 8fa3 433e 7dea 8f3d e753 90bf c50d 233e
00000320: 1119 9abf 56fb 47bf 9996 343d 2413 82bf
00000330: 8d23 9f3e 760b 553d cb11 1d3e 6e17 c0bd
00000340: 5364 96bd 786c 413d 69c9 303d adf9 b23e
00000350: 4af6 153f 2a09 f53e 7e7a eabe 3ec6 54bc
00000360: 7931 c73e 24a5 ae3e cb6b 8bbe e89d 273e
00000370: 3cb7 aa3d 92c3 f8be cfc2 993e 0a0b af3d
00000380: 9848 503f 1e63 88be 1596 1abd ed47 3bbd
00000390: 459a bc3e b92a dfbc 895b a8bf a847 993f
000003a0: c7dc 8abf dc6b 38bf c097 dfbe eb7c 253f
000003b0: cc18 52be 1834 e3be 4711 6a3f 150c 85bf
000003c0: c409 9d3f d034 36bf 4e39 393f 7861 27be
000003d0: 7350 b6be babf dd3e 61e2 84bf d189 b6be
000003e0: 1d00 eebe a3db c1bd d0e6 b2be 7d7c 4dbe
000003f0: 7653 dc3e ad0e d0be 0d61 0c3d 8757 9f3f
0.013114903 -0.540992 0.09488467 -0.20960177 0.09647326 0.6452981 -0.009914926 -0.92452556
0.28555548 -0.98508126 -0.14107895 0.015553503 0.52716047 0.753625 -0.3033941 -0.10296355
-0.8044245 0.071290776 -0.081904896 -0.055581786 0.14064585 0.33511072 0.24100344 0.620526
-0.09410961 -0.07830446 -0.077206366 0.24007621 -0.40058953 -0.11835295 -0.3115688 0.35356578
0.84851086 -0.10945077 0.31574917 -0.34512508 -0.36003864 0.27268735 1.0545957 -0.17771237
-0.26716754 -0.2628277 -0.14231399 1.1454023 0.12112685 0.36268958 0.50849634 0.36071962
1.1469495 -0.038742796 0.6809509 1.116422 0.38739443 0.30512172 0.9207078 0.58587754
-0.5371378 1.0296775 0.66541594 0.3959195 0.7630474 -0.25484002 -0.5316919 -0.25733653
-0.49465573 -0.2290738 0.16906828 0.41164893 0.22470282 -0.26479143 -0.10477001 -0.23719627
0.42079645 -0.013417171 -0.4585615 0.8870563 -0.28038 0.2336751 -0.09045518 -0.20078728
0.0560958 -0.7743559 -0.09619267 0.0794934 -0.25996938 -0.120392896 -0.8535445 -0.2741205
-0.015994959 -0.72202915 0.05524976 0.53329027 -0.03557903 0.6889402 0.9728363 0.28074774
1.0977556 -0.1711038 0.3072239 -0.2388522 0.75655323 -0.12619813 -0.07461505 0.99446154
0.25910762 0.42434838 -0.23391567 -0.0896073 -0.07140814 0.5147697 -0.5604271 0.38711882
0.2270702 -0.3445919 0.04552407 0.06160801 -0.6951503 0.34632486 0.8678097 -0.2769523
0.25010225 -1.3285348 -0.0027881172 0.3521588 0.48687953 -0.7377829 -0.8231137 0.29887357
0.595503 -0.14041801 -0.28475583 0.016604539 0.050007813 -0.69055986 0.2873131 0.5122294
-0.59592485 0.31113505 0.38973603 -0.0626391 -0.13625284 -1.314807 0.23562144 0.29127103
-0.48777923 0.5410773 0.043017432 0.7061563 0.18767667 -0.11960701 -0.4568733 -0.44950235
0.19064282 0.65186334 0.27014598 0.01625057 -0.25162417 0.107657276 0.35770145 0.047401644
-0.15600432 0.12918016 -0.24477664 -0.9632275 0.08103405 0.24521148 -0.25507483 0.4688392
-0.08323142 -0.8759702 0.13733847 0.30163524 -0.04174518 1.4371558 0.00017651689 0.29744628
-0.04343201 0.52390975 -0.5204016 -0.6435554 -0.5194944 -1.2790393 0.49428627 1.119793
-0.21756239 -0.027679821 -0.20191701 0.20440637 -0.37917736 0.2579596 -1.1035851 -0.9351977
0.26718983 0.14628716 -0.52998376 -0.9663981 0.19105361 0.07027147 -1.1275605 0.15923221
-1.20389 -0.78117883 0.044088934 -1.0162091 0.3108181 0.052012883 0.15338819 -0.09379469
-0.07343354 0.047222584 0.04316083 0.34956113 0.5857893 0.47858554 -0.4579658 -0.012986718
0.38904932 0.34110367 -0.27230677 0.1636883 0.083357304 -0.48586708 0.3003144 0.085470274
0.8136077 -0.2663812 -0.037740786 -0.04572289 0.36836448 -0.027242051 -1.3152934 1.1974993
-1.0848626 -0.7203958 -0.43670464 0.64643735 -0.20517272 -0.44375682 0.91432613 -1.0394312
1.2268605 -0.71174335 0.72353065 -0.16345775 -0.35608253 0.43310338 -1.0381585 -0.3565202
-0.4648446 -0.094657205 -0.3494172 -0.2006702 0.43032426 -0.40636197 0.034272242 1.2448586
